output/server_model.pth (torch, 126739 bytes, 8 tensors)

conv1.weight f4 [10, 1, 5, 5]
0	0x3ba09a14	0.00490118
1	0xbde11824	-0.109909326
2	0x3da7a9d0	0.08186686
3	0xbe9fb22a	-0.31190616
4	0xbe856b62	-0.2605849
5	0x3d88f914	0.06688133
6	0x3e037c96	0.12840495
7	0xbd2a33af	-0.041553196
8	0xbea9f560	-0.3319502
9	0xbef910e4	-0.486457
10	0x3da45a9e	0.08025096
11	0x3ec023d4	0.37527335
12	0x3c001311	0.007817046
13	0xbeb782ee	-0.3584208
14	0xbccadc6a	-0.024763305
15	0x3ddab2a8	0.10678607
16	0x3eef80a6	0.46777838
17	0x3e27b09f	0.1637597
18	0x3e4201e6	0.18946037
19	0x3d8cc682	0.068738
20	0x3e9fda65	0.3122131
21	0x3ef5e558	0.48026538
22	0x3f16ccb0	0.5890608
23	0x3ed79a18	0.42109752
24	0x3e18b260	0.14911795
25	0xbe9f0c78	-0.310642
26	0xbe91dc3c	-0.28488338
27	0xbd272eff	-0.040816303
28	0x3e9b5dea	0.30345088
29	0x3e4c7bf1	0.19969155
30	0xbe919dfc	-0.28440845
31	0xbccb6b35	-0.024831394
32	0x3d993e14	0.074825436
33	0x3e8db783	0.2767907
34	0x3cb20827	0.021732403
35	0xbeb3c8fe	-0.35114282
36	0xbe2f9ee8	-0.17150462
37	0x3e799112	0.24371746
38	0x3eb514c4	0.35367405
39	0x3e4329ed	0.19058962
40	0xbdd1fa8a	-0.10252865
41	0x3e788a98	0.2427162
42	0x3ee0fa39	0.43940905
43	0x3ea6c262	0.32570177
44	0xbe80a6b4	-0.25127184
45	0x3e83055c	0.25590026
46	0x3ea76688	0.32695413
47	0x3de4f0d1	0.111787446
48	0xbc11d1ad	-0.008900088
49	0xbe88c8d2	-0.26715714
50	0x3da02e0e	0.07821284
51	0xbd60c9a0	-0.054879785
52	0xbe3541f8	-0.17700946
53	0x3d1ab24a	0.037767686
54	0x3e060f31	0.13091733
55	0x3e5b0220	0.2138753
56	0xbc70178f	-0.014654054
57	0x3e7a22c5	0.24427326
58	0x3e563de1	0.20922042
59	0x3e804083	0.2504922
60	0xbe34f37c	-0.17671007
61	0xbe2b9d98	-0.16759336
62	0xbe09169b	-0.1338753
63	0x3e6400c0	0.22265911
64	0x3d1c5959	0.038171146
65	0x3d713e60	0.058897376
66	0xbcba383f	-0.022731898
67	0x3d342c0a	0.04398731
68	0xbc9e6f08	-0.019340053
69	0xbca39f4c	-0.01997342
70	0xbda60c36	-0.08107798
71	0xbda9ae28	-0.08285171
72	0xbe4f0e54	-0.2022031
73	0x3e30d874	0.1727007
74	0xbe3845d1	-0.17995383
75	0x3e11ccc2	0.14238265
76	0xbe1c1544	-0.15242487
77	0x3d801b48	0.062552035
78	0xbe60aea6	-0.21941623
79	0xbe92770c	-0.2860645
80	0x3e068290	0.13135743
81	0xbd5dc38f	-0.054141577
82	0x3e5c386e	0.21505901
83	0xbdfe3e34	-0.12414208
84	0xbea17376	-0.31533402
85	0xbcd952aa	-0.026528675
86	0x3e618794	0.22024375
87	0x3d398341	0.04529119
88	0x3e0114b1	0.1260555
89	0xbd90a566	-0.07062797
90	0xbc910f33	-0.017707443
91	0xbdca3861	-0.09874035
92	0x3dc9b88e	0.09849654
93	0x3e55c516	0.20875964
94	0x3e78ed1d	0.24309202
95	0x3cb90cd9	0.022589134
96	0x3d26f24e	0.040758424
97	0x3e2255e9	0.15853085
98	0x3e2676f8	0.1625632
99	0x3e987ec4	0.29784214
100	0x3e8a3713	0.26995143
101	0x3e53bb20	0.20676851
102	0x3ed94a15	0.42439333
103	0x3e196a7e	0.1498203
104	0x3e9061a1	0.28199485
105	0x3eca189c	0.394719
106	0x3f010e32	0.50412285
107	0x3ef1c11d	0.47217646
108	0x3eb2d210	0.3492589
109	0x3e2de852	0.16983154
110	0x3e55fe8c	0.20897883
111	0xbe48f858	-0.19625986
112	0xbd1e9f8b	-0.03872637
113	0xbc80ba7d	-0.015713925
114	0xbb8e93d2	-0.0043511176
115	0xbe636864	-0.2220779
116	0xbec8a666	-0.39189452
117	0xbed54fd8	-0.41662478
118	0xbeba6920	-0.3640833
119	0xbe753274	-0.23945028
120	0xbef8982d	-0.485536
121	0xbeeeeb6a	-0.46663982
122	0xbec7e7e0	-0.39044094
123	0xbe5cb9c9	-0.21555246
124	0xbe1fad9d	-0.15593572
125	0xbd7e20a6	-0.062042855
126	0xbe349d62	-0.17638162
127	0xbe74f5ce	-0.23921892
128	0x3e8d7df6	0.27635163
129	0x3e392dc5	0.18083866
130	0xbe483baf	-0.19554017
131	0xbe01b0bc	-0.12665075
132	0x3e0ef53a	0.13960734
133	0x3f066928	0.52504206
134	0x3e1467de	0.14492747
135	0xbe6ba6e6	-0.23012885
136	0x3e536524	0.20644051
137	0x3ecaa00a	0.39575225
138	0x3f3ee8f0	0.74574184
139	0x3e222006	0.15832528
140	0x3e2a71dd	0.16644998
141	0x3ea86cc7	0.3289549
142	0x3f2f0666	0.6836914
143	0x3f13123a	0.57449687
144	0x3dbf632b	0.09345087
145	0x3e00e2cf	0.1258652
146	0xbc1b46ee	-0.00947736
147	0x3ebcbe77	0.36864063
148	0x3e5441c0	0.20728207
149	0x3e495a74	0.19663411
150	0x3c23203e	0.009956418
151	0xbdebfc22	-0.115227
152	0xbd7d6bac	-0.061870262
153	0xbd5b949e	-0.05360853
154	0xbd8e9d08	-0.06963545
155	0x3e7c33a0	0.24629068
156	0xbe0ab0b4	-0.1354397
157	0xbe01cda9	-0.1267611
158	0xbe79e194	-0.24402457
159	0xbdf90426	-0.121589944
160	0xbda6b7de	-0.08140539
161	0x3d8625d4	0.06550184
162	0x3e7d1638	0.24715507
163	0x3d2e3c67	0.042538073
164	0x3d2c2ca6	0.042034768
165	0x3db8ee78	0.09029859
166	0x3dd95823	0.10612514
167	0x3e81c2f4	0.2534405
168	0xbdc85824	-0.097824365
169	0x3c856520	0.016283572
170	0xbd92e633	-0.07172813
171	0x3e3857de	0.18002269
172	0x3e068df1	0.13140084
173	0xbd9ec5ef	-0.077525966
174	0x3ddf2e13	0.1089746
175	0xbc0d3fbe	-0.008621154
176	0x3e32e1ca	0.17468944
177	0x3e23f8ec	0.16012925
178	0xbe1e0c3d	-0.15434356
179	0xbe9ef96a	-0.31049663
180	0xbd57a260	-0.052645087
181	0x3c9234a2	0.017847363
182	0x3e88c81f	0.2671518
183	0xbe75f6e0	-0.24019957
184	0xbdc004de	-0.09375928
185	0x3e2b3125	0.16717966
186	0x3e5ccf08	0.21563351
187	0x3dae0470	0.0849694
188	0xbc89513e	-0.016762372
189	0x3dfcabb0	0.12337434
190	0x3e6720ec	0.22571152
191	0x3ec74a71	0.38923982
192	0x3f191b14	0.5980694
193	0x3e66959c	0.22518009
194	0xbd665106	-0.056229614
195	0xbd407436	-0.046985827
196	0x3da52e98	0.08065528
197	0x3e99f904	0.30072796
198	0x3eac3482	0.3363381
199	0x3e1125b0	0.14174533
200	0xbd849f65	-0.064757146
201	0x3dd303a8	0.10303432
202	0x3e86cc22	0.26327616
203	0xbe94c2c1	-0.29054835
204	0xbe9133ce	-0.28359836
205	0x3e78249e	0.24232718
206	0x3df96d76	0.12179081
207	0x3ed58c28	0.41708493
208	0x3ef6a31f	0.48171327
209	0x3eae9962	0.34101397
210	0x3e95fbb6	0.29293603
211	0x3e82b32d	0.25527325
212	0x3eee92a3	0.4659625
213	0x3f24d641	0.64389426
214	0x3efb6e34	0.49107516
215	0xbea87f6a	-0.3290971
216	0xbd34b4a0	-0.04411757
217	0xbe6a6411	-0.22889735
218	0xbd88e3d0	-0.06684077
219	0x3e8d9234	0.27650607
220	0xbedd9c9d	-0.4328355
221	0xbf0737d0	-0.5281954
222	0xbed2c15e	-0.41163152
223	0xbe85c331	-0.26125482
224	0xbe23a020	-0.15979052
225	0x3e1d1024	0.15338188
226	0x3c39fb5e	0.0113514345
227	0xbe89e90e	-0.2693562
228	0xbecca922	-0.39972788
229	0xbe894e14	-0.2681738
230	0xbbfe8e8a	-0.007768457
231	0x3e83737e	0.2567405
232	0x3efc6126	0.49292868
233	0x3ea5445b	0.32278714
234	0xbdc5672a	-0.096388176
235	0x3e1e8e3a	0.15483943
236	0xbbb3bd85	-0.005485239
237	0x3ee98535	0.4560944
238	0x3ee26669	0.44218758
239	0x3e60f178	0.21967113
240	0xbe3ee1d8	-0.1864084
241	0xbe9702a2	-0.29494196
242	0xbe04f8fe	-0.12985608
243	0x3c4f4d16	0.012652656
244	0x3c9f4854	0.019443668
245	0xbe9f1f9e	-0.3107881
246	0xbd61d290	-0.05513245
247	0xbea55bfb	-0.32296738
248	0x3e096fd3	0.13421564
249	0x3de95f7c	0.11395165

conv1.bias f4 [10]
0	0x3c06ef8a	0.0082358215
1	0xbe1d6d5c	-0.15373749
2	0xbd8755cd	-0.06608162
3	0xba026340	-0.0004973896
4	0x3e97be44	0.2963735
5	0xbdb3f4ab	-0.08786901
6	0xbdbe184a	-0.092819765
7	0xbca5b1ba	-0.020226348
8	0x3b40ae92	0.0029400927
9	0xbc962a0f	-0.018330602

conv2.weight f4 [20, 10, 5, 5]
0	0xbdd10aa4	-0.10207108
1	0xbd87a9d2	-0.066241875
2	0x3dbb1238	0.09134334
3	0x3dbfb6b8	0.09361023
4	0xbd3675ba	-0.044545867
5	0xbd8a1cda	-0.06743784
6	0xbe300380	-0.17188835
7	0x3dd8745e	0.1056907
8	0x3e34a979	0.17642774
9	0xbce1ee86	-0.027579557
10	0xbd267859	-0.040642116
11	0xbe235bfe	-0.15953061
12	0x3c333647	0.010938234
13	0x3e144396	0.14478907
14	0xbd12bedc	-0.03582655
15	0xbd00ce0a	-0.031446494
16	0xbe385694	-0.18001777
17	0x3d71dbe0	0.05904758
18	0x3e44253a	0.19154826
19	0xbd219f88	-0.03945878
20	0x3dca53e1	0.0987928
21	0xbdb1bd7e	-0.08678721
22	0x3cf3e518	0.029772326
23	0x3da5b62d	0.08091388
24	0xbcc46f78	-0.023978934
25	0xbba7b467	-0.005117941
26	0x3d2b2648	0.041784555
27	0x3dabbb4b	0.08385333
28	0xbc2611d3	-0.010136086
29	0xbda4b38f	-0.080420606
30	0xbd780520	-0.060551763
31	0xbd510668	-0.0510315
32	0x3d87c673	0.06629648
33	0xbc07893a	-0.008272463
34	0xbdc9aa36	-0.09846918
35	0xbde70d06	-0.11281781
36	0xbc40cc4a	-0.011767456
37	0x3d586734	0.052832797
38	0xbe0087a1	-0.12551738
39	0xbda4a282	-0.080388084
40	0xbdce49aa	-0.10072644
41	0xbb27305a	-0.0025510998
42	0x3de63f62	0.11242558
43	0xbdbd12ab	-0.09232076
44	0xbd12c499	-0.03583202
45	0xbcf0e88f	-0.029407768
46	0x3c631e63	0.013862225
47	0x3ddb55d0	0.10709727
48	0xbd66583f	-0.0562365
49	0xbd95a2dc	-0.073064536
50	0x3c505bf8	0.01271724
51	0x3d822ce5	0.06356219
52	0x3ca72c98	0.020407006
53	0x3d254a54	0.040354088
54	0x3c193aa4	0.00935236
55	0xbd915976	-0.070971414
56	0x3d162482	0.03665591
57	0x3cfb5700	0.030681133
58	0xbd4c9096	-0.049942575
59	0x3d67ed0c	0.05662255
60	0xbccf5e9c	-0.025313668
61	0x3d8d781b	0.06907674
62	0xbd14ee62	-0.036360152
63	0x3b41ff49	0.0029601625
64	0x3d188fa5	0.037246365
65	0xbd8253a8	-0.063636124
66	0x3c380dde	0.011233775
67	0x3d634aa6	0.055491112
68	0xbd1fd288	-0.039019138
69	0x3c271e2a	0.010200063
70	0xbc4f50e6	-0.012653565
71	0xbd39bc8e	-0.045345835
72	0x3c69db04	0.014273409
73	0x3c6e3ea8	0.014541306
74	0x3d658772	0.056037374
75	0xbdcdefcc	-0.10055503
76	0xbd822574	-0.063548
77	0x3d98f3d2	0.0746838
78	0x3d058d88	0.032605678
79	0xbd2e141c	-0.042499647
80	0x3b0b3dca	0.0021246546
81	0xbc69e76e	-0.014276369
82	0x3d8d5036	0.06900065
83	0x3d1744bc	0.036930785
84	0x3b155483	0.0022785969
85	0xbd0b84e5	-0.034062285
86	0xbd1c46e4	-0.038153544
87	0x3dd363b4	0.10321751
88	0x3c1222fe	0.008919476
89	0xbd6fb56c	-0.058522627
90	0xbd471a67	-0.048609164
91	0xbda6c7ae	-0.08143555
92	0xbca060ac	-0.019577347
93	0x3cde777c	0.027156584
94	0x3cc609b2	0.024174545
95	0x3d507174	0.050889447
96	0xbdd045bc	-0.10169551
97	0xbd1f85e6	-0.038946055
98	0x3d32367c	0.04350899
99	0xbd3b7d8c	-0.045774028
100	0x3d785148	0.06062439
101	0x3be39816	0.0069456203
102	0x3c84ab74	0.016195036
103	0xbd4f42f5	-0.050600965
104	0xbb3500eb	-0.0027618955
105	0x3ae2eac4	0.0017312397
106	0xbd656d4b	-0.056012433
107	0xbd1a7e09	-0.037717853
108	0xbd769c42	-0.060207613
109	0x3c0c486c	0.008562189
110	0x3b771503	0.0037701733
111	0xbda6e778	-0.08149618
112	0xbe18a76b	-0.14907615
113	0xbe359820	-0.17733812
114	0xbcd179ce	-0.025570776
115	0x3c52cfee	0.012866957
116	0xbda014e8	-0.078164876
117	0xbdbd7420	-0.09250665
118	0xbdb76e3a	-0.08956571
119	0xbde4f794	-0.11180034
120	0x3d001b92	0.031276293
121	0x3c8e3024	0.01735694
122	0xbdcbfb91	-0.09960092
123	0x3cb93d06	0.022612106
124	0xbd25e95c	-0.040505752
125	0xbdf690b2	-0.12039317
126	0x3e2f80aa	0.17138925
127	0x3e32f0d7	0.17474686
128	0xbda7b3be	-0.0818858
129	0xbe0a6448	-0.13514817
130	0xbe38f5bf	-0.18062495
131	0x3c7584c4	0.014985267
132	0x3e480b86	0.19535646
133	0xbd5ee655	-0.05441888
134	0xbe3b0672	-0.18264177
135	0xbe5817fa	-0.21102896
136	0x3d799cf2	0.06094069
137	0x3ea83388	0.32851815
138	0xbd5d62ff	-0.05404949
139	0xbe3191b1	-0.17340733
140	0xbe7034f2	-0.23457697
141	0x3bebd01a	0.0071964385
142	0x3e78d722	0.24300817
143	0x3cedecba	0.029043544
144	0xbe409136	-0.18805394
145	0xbdf61402	-0.12015535
146	0xbd961426	-0.07328062
147	0x3dce329a	0.10068245
148	0xbd16c81d	-0.036811937
149	0xbc0c956a	-0.008580545
150	0xbd6e8c7a	-0.058239438
151	0xbca3fd1c	-0.020018153
152	0x3d2871d8	0.041124195
153	0x3d912c15	0.07088486
154	0xbc293f5e	-0.010330049
155	0xbd67ea9c	-0.056620225
156	0x3ce68fcc	0.02814474
157	0x3d894c8d	0.06704054
158	0xbd0f10ca	-0.03492812
159	0xbd87fa64	-0.06639555
160	0x3ccea56e	0.025225367
161	0xbb7b0285	-0.0038301062
162	0xbd17f014	-0.03709419
163	0x3db55a96	0.088551685
164	0xbcf41ef0	-0.029799908
165	0x3d786564	0.06064357
166	0xbc1f2d3f	-0.009715377
167	0xbc3f1a2d	-0.011663956
168	0x3cc8bbc7	0.024503602
169	0x3cf2db4c	0.029645585
170	0x3cd1f93d	0.025631541
171	0xbc393b23	-0.011305603
172	0xbc8984ae	-0.0167869
173	0x3d435367	0.04768696
174	0xbd293cb4	-0.041317657
175	0xbda58102	-0.08081247
176	0xbb351f63	-0.0027637116
177	0x3e192620	0.1495595
178	0xbb9d1ca6	-0.004794675
179	0xbdafd91e	-0.08586334
180	0xbdf9f1d4	-0.12204328
181	0xbce94fee	-0.028480496
182	0x3e1dd7bc	0.15414327
183	0x3e06367a	0.13106719
184	0xbde5ffb7	-0.11230414
185	0xbce59830	-0.02802667
186	0xbe279edc	-0.16369194
187	0x3e02b04e	0.12762567
188	0x3e25f7c4	0.16207796
189	0xbd96f63e	-0.07371186
190	0xbda686de	-0.081311926
191	0xbde83f59	-0.113402076
192	0x3e0752e6	0.13215217
193	0x3e466590	0.1937468
194	0xb9d3c8b8	-0.00040394603
195	0x3cec4ef2	0.028846238
196	0xbd71f7ba	-0.05907414
197	0xbbae09b9	-0.0053112176
198	0x3d12b6c6	0.035818838
199	0xbd0801ee	-0.033204965
200	0xbdabf294	-0.083958775
201	0x3d717955	0.058953602
202	0x3db1c946	0.08680968
203	0xbd2452ac	-0.040117905
204	0xbd8e8f8b	-0.069609724
205	0xbda4799e	-0.08031009
206	0xbd5229df	-0.051309463
207	0x3d305fd9	0.043060157
208	0xbd513494	-0.051075533
209	0xbd5a3f22	-0.053282864
210	0xbe1c65e6	-0.15273246
211	0x3dc81e05	0.09771351
212	0x3e0b7fb0	0.13622928
213	0xbb843b50	-0.004035391
214	0xbe48aad8	-0.19596422
215	0xbd69b505	-0.0570574
216	0xbcf6498a	-0.030064363
217	0x3e1df168	0.1542412
218	0x3d8f0e26	0.069851205
219	0xbd839671	-0.06425179
220	0xbe19db8c	-0.15025157
221	0xbe047c18	-0.12937963
222	0xbca4201b	-0.02003484
223	0x3d721d59	0.05911002
224	0xbd2e4be1	-0.042552833
225	0xbd5ba748	-0.05362633
226	0x3d96ef50	0.07369864
227	0xbbcbaba5	-0.00621553
228	0x3c995016	0.018714946
229	0xbd490030	-0.049072444
230	0xbd91ca52	-0.07118668
231	0xbd1a3c81	-0.037655357
232	0x3cc6081c	0.024173789
233	0xbd157392	-0.03648717
234	0x3d300dac	0.04298179
235	0xbd9f37a4	-0.077742845
236	0x3c33e4cb	0.010979841
237	0x3e082c08	0.13298047
238	0xbd352940	-0.044228792
239	0xbd2ad0ae	-0.04170292
240	0xbd23fa40	-0.04003358
241	0x3cab65ae	0.020922508
242	0x3dc1ea28	0.0946849
243	0xbcba6814	-0.022754706
244	0x3c76b370	0.01505743
245	0xbd96d162	-0.07364155
246	0xbdd1c836	-0.10243265
247	0x3d18e536	0.037327968
248	0x3db5d624	0.08878735
249	0xbd2afc1f	-0.041744348
250	0x3e1ed3b8	0.15510452
251	0x3d7b3b96	0.061336122
252	0xbd8a0a68	-0.06740266
253	0xbd4a6e16	-0.049421392
254	0x3da78c32	0.08181037
255	0x3df369de	0.11885427

conv2.bias f4 [20]
0	0xbd82391f	-0.06358551
1	0xbde63b10	-0.11241734
2	0xbd1f3c91	-0.03887612
3	0xbbc108f2	-0.005890959
4	0xbdcb094e	-0.09913884
5	0xbdd17ac5	-0.102284946
6	0xbe29777c	-0.16549486
7	0xbd83992d	-0.064257
8	0x3d78c707	0.060736682
9	0xbdcefdc8	-0.10106999
10	0xbdd22d20	-0.10262513
11	0x3d20a986	0.03922417
12	0x3c9194ee	0.01777121
13	0xbe218e12	-0.15776852
14	0xbc14b6da	-0.009076798
15	0xbcd03a14	-0.025418319
16	0xbc786fc6	-0.015163368
17	0xbda4cb7a	-0.080466226
18	0xbd8a25f6	-0.06745522
19	0xbda8ff43	-0.08251812

fc1.weight f4 [50, 500]
0	0x3ceb5370	0.02872631
1	0x3c1398cf	0.0090086
2	0x3b1888f4	0.002327499
3	0x3d1638fe	0.036675446
4	0xbd28d1c5	-0.041215677
5	0x3c83afe2	0.016075078
6	0x3cf6c1de	0.03012174
7	0x3c6f0764	0.014589164
8	0x3d1bda18	0.038049787
9	0x3d26a472	0.04068417
10	0xbc665b63	-0.014059874
11	0xbd0d76ad	-0.034537006
12	0xbd86444f	-0.065559976
13	0xbd25c7d2	-0.040473767
14	0x3b9fd462	0.004877613
15	0x3ba688da	0.005082232
16	0x3b84999b	0.0040466315
17	0xbcc71f44	-0.0243069
18	0xbae44b9e	-0.0017417555
19	0x3d485550	0.048909485
20	0x3c90ec1d	0.017690713
21	0xbc3bab50	-0.011454418
22	0x3d28d0bb	0.041214686
23	0xbc896c49	-0.016775267
24	0xbc8e7d6a	-0.017393786
25	0x3cba2fd3	0.022727882
26	0x3d26feec	0.040770456
27	0xbd1427ba	-0.0361707
28	0xbd3b21ea	-0.04568664
29	0xbbea3d3c	-0.007148413
30	0xbcb531d8	-0.022118494
31	0x3c1dc2db	0.009628977
32	0xbd4b94ad	-0.049702335
33	0x3d2a7f42	0.04162527
34	0xbd1822a8	-0.037142426
35	0xbd24a257	-0.04019388
36	0xbd524e1b	-0.05134402
37	0xbb161b90	-0.0022904612
38	0x3c703696	0.014661452
39	0x3d124c3e	0.03571724
40	0xbc81691d	-0.015797192
41	0xbccbab70	-0.024862021
42	0xbd653cb1	-0.055966083
43	0x3c96085c	0.018314533
44	0x3ca836dd	0.020533973
45	0x3d0e5c4b	0.034755986
46	0x3d39df17	0.04537877
47	0xbca410f6	-0.020027619
48	0x3cee2bc0	0.029073596
49	0x3d15a67f	0.036535736
50	0xbd1caee8	-0.03825274
51	0xbd2670a8	-0.04063478
52	0xbd95f894	-0.07322803
53	0x3bbbcbd2	0.0057310844
54	0x3ba9c156	0.005180518
55	0xbb444e15	-0.0029953767
56	0xbae4ee29	-0.0017465997
57	0xbd249350	-0.04017955
58	0x3c0e6822	0.008691819
59	0x3c9788c1	0.018497827
60	0x3d13993b	0.036034804
61	0xbc09ab24	-0.0084026195
62	0xbd442bce	-0.047893338
63	0x3cd663ae	0.026170578
64	0xbb3d5073	-0.0028887063
65	0x3d18d304	0.037310615
66	0x3d2544b8	0.04034874
67	0xbd405ce6	-0.046963595
68	0xbd1ecc84	-0.03876926
69	0xbafadf05	-0.0019139951
70	0xbcd877a4	-0.026424237
71	0xbbe989b8	-0.007127013
72	0x3befa0e6	0.0073128818
73	0xbb284319	-0.002567476
74	0xbcbef6f0	-0.023311108
75	0xbc2e4420	-0.010636359
76	0x3cadeb9a	0.021230508
77	0x3b8ed315	0.004358659
78	0xbcd7e72e	-0.026355352
79	0x3afae921	0.0019142964
80	0x3d4cb67f	0.04997873
81	0x3c136cc9	0.008998104
82	0x3d20e1d6	0.039277874
83	0x3ba7aeee	0.005117289
84	0x3c205106	0.0097849425
85	0xbbbebf65	-0.005821156
86	0xbc29d52e	-0.010365767
87	0x3cf465bd	0.029833669
88	0x3cb54d86	0.022131693
89	0x3cfbbb22	0.03072888
90	0xbbd4a800	-0.0064897537
91	0x38873a8e	6.448208e-05
92	0xbcc48ea1	-0.023993792
93	0x3c9650da	0.0183491
94	0x3d112e94	0.03544481
95	0xbd23e27c	-0.040010914
96	0xbd46bb41	-0.048518423
97	0xbc7e29a4	-0.015512858
98	0x3b4af209	0.0030967018
99	0x3d0eacc9	0.03483275
100	0x3d1d7f8c	0.038451716
101	0x3c9d4abc	0.019200675
102	0x3b670e7e	0.003525644
103	0xbc28b7a0	-0.010297686
104	0xbbecb3ac	-0.007223567
105	0xbd0ce465	-0.0343975
106	0xbc1d2c2c	-0.009593051
107	0x3cdb5eaa	0.026778538
108	0x3cc9bbf3	0.024625754
109	0xbc874f5a	-0.01651733
110	0xbd10b8a2	-0.03533233
111	0xbd1be06e	-0.03805583
112	0xbc06e46a	-0.008233169
113	0x3cd10a3b	0.025517574
114	0xbd2ebd3a	-0.04266093
115	0x3bd668c2	0.00654325
116	0xbcf9f11d	-0.03051048
117	0x3cf72690	0.030169755
118	0x3c960c60	0.018316448
119	0xbcfd1efa	-0.03089856
120	0xbd12e359	-0.035861347
121	0xbcba1e5c	-0.022719555
122	0x3d08cb1b	0.03339682
123	0xbc01ad12	-0.007914798
124	0xbc8c168c	-0.017100595
125	0x3c910ec4	0.017707236
126	0xbbf80888	-0.0075693764
127	0xbc98da52	-0.01865879
128	0x3cffdfe6	0.031234693
129	0x3ca26ab2	0.019826267
130	0xbb6a7271	-0.0035773779
131	0xbad3a09c	-0.0016145888
132	0xbc8a8e05	-0.016913423
133	0xbc563e04	-0.013076309
134	0xbd37854a	-0.04480485
135	0x3d1e4804	0.0386429
136	0x3ba85415	0.0051369765
137	0xbcdf9c87	-0.027296318
138	0xbcaa25f8	-0.020770058
139	0xbc07de1e	-0.008292703
140	0xbc4c6bf8	-0.012476914
141	0xbc75d4dd	-0.015004364
142	0xbb9ddce4	-0.004817592
143	0x3c267046	0.010158604
144	0xbd0c3a78	-0.034235448
145	0x3cadfdbc	0.021239154
146	0x3bb963a4	0.00565763
147	0x3d4a4af2	0.04938788
148	0x3c8c4fb6	0.017127853
149	0x3c258568	0.010102607
150	0xbcff20ba	-0.031143535
151	0xbca4a808	-0.020099655
152	0xbcfac60a	-0.03061201
153	0x3c2c34ad	0.010510606
154	0xbc9f18aa	-0.01942094
155	0xbc799dba	-0.015235359
156	0x3cd42ec0	0.025901198
157	0x3cbdff2a	0.02319296
158	0xbd4d08e8	-0.05005732
159	0xbcb1f587	-0.021723522
160	0xbcb10e9c	-0.021613412
161	0x3c3c2c91	0.011485235
162	0xbc894acd	-0.0167593
163	0xb9c36450	-0.00037268037
164	0xbd133108	-0.03593543
165	0xbc63d81f	-0.013906508
166	0x3bdf0e36	0.006807114
167	0x3d982b30	0.07430112
168	0x3d675526	0.05647769
169	0x3d13dd4b	0.036099713
170	0xbd21bd34	-0.03948708
171	0xbc110570	-0.008851394
172	0xbd2ea8c0	-0.0426414
173	0xbc830253	-0.01599232
174	0xbd015252	-0.031572647
175	0x3cb2bb6c	0.021817885
176	0x3ceaffe2	0.028686468
177	0xbd08de7e	-0.03341531
178	0xbd5a41fe	-0.05328559
179	0xbbf26501	-0.0073972945
180	0x3cdf6de8	0.027274087
181	0xbcb02fe6	-0.021507215
182	0x3d068149	0.03283814
183	0x3c85247f	0.016252754
184	0x3c9bfc52	0.019041214
185	0x3bff7349	0.0077957255
186	0xbcbf57b7	-0.023357255
187	0xbd1b4dc5	-0.037915964
188	0x3cc98bd4	0.024602808
189	0xbab7f3b8	-0.0014034426
190	0x3d16cccc	0.036816403
191	0x3bdb4f39	0.0066927937
192	0xbd090b2a	-0.033457913
193	0xbd4cb7d0	-0.049979985
194	0xbc955342	-0.018228177
195	0xbb9dfe6e	-0.00482159
196	0xbc9e6dc4	-0.01933945
197	0xbc990d94	-0.018683232
198	0xbca89908	-0.020580783
199	0xbd389c9c	-0.04507123
200	0x3d0253f6	0.031818353
201	0xbc1f85c8	-0.009736486
202	0xbd3dfb42	-0.046382196
203	0xbd091420	-0.03346646
204	0xbc457147	-0.012050933
205	0x3d1c7125	0.03819384
206	0x3d6dbbee	0.05804055
207	0x3d80f242	0.06296207
208	0x3d716270	0.058931768
209	0x3cc30ce8	0.023809865
210	0x3d02c6ae	0.031927757
211	0x3d362a7d	0.044474114
212	0x3c2fa9fc	0.01072168
213	0x3d415e41	0.04720903
214	0x3d43a712	0.047766753
215	0xbd03d53c	-0.032185778
216	0x3ce9f95c	0.028561287
217	0x3d6d06ac	0.05786769
218	0xbaefa2e7	-0.0018282802
219	0xbc6838f9	-0.01417374
220	0x3c5bc2ca	0.013413141
221	0xbd9b62b8	-0.075871885
222	0xbced5384	-0.028970487
223	0x3c661f7c	0.014045592
224	0x3d0b84c8	0.034062177
225	0xbc34ae01	-0.011027814
226	0x3d1e2bde	0.038616054
227	0x3cc63bbc	0.024198405
228	0x39b59e56	0.0003464098
229	0x3a729c35	0.0009254844
230	0x3c9fa126	0.019486021
231	0x3be88538	0.007095959
232	0xbd2cc63a	-0.04218123
233	0x3bba9e26	0.0056951223
234	0xbc9bd7d7	-0.019023819
235	0xbc81ee12	-0.015860591
236	0xb7a3d480	-1.9530067e-05
237	0xbc8a1684	-0.01685644
238	0xbdb3567c	-0.0875673
239	0xbd024609	-0.031805072
240	0x3d1577f9	0.036491368
241	0x3d222c4a	0.03959302
242	0xbd7fbc4a	-0.062435426
243	0x3bc43bc1	0.0059885685
244	0x3cd8794e	0.02642503
245	0xbb398adc	-0.0028311526
246	0xbb9fa4e7	-0.004871953
247	0x3ce37a14	0.027768172
248	0xbd44544d	-0.047931958
249	0x3d451b8f	0.048121985
250	0xbcf35142	-0.029701833
251	0x3cb95cf4	0.022627331
252	0x3b9a1826	0.0047025857
253	0x3cddafec	0.027061425
254	0xbbe06b0a	-0.0068486976
255	0xbc9e724f	-0.019341616

fc1.bias f4 [50]
0	0xbd609f8a	-0.05483965
1	0xbce90024	-0.02844245
2	0xbc35a58e	-0.011086835
3	0x3cfb33b0	0.030664295
4	0x3d1a4cd6	0.037670933
5	0x39b0458c	0.00033621152
6	0x3c731cb0	0.014838383
7	0x3c686e4c	0.014186453
8	0x3cea9ac4	0.028638251
9	0xbcfc29e6	-0.030781697
10	0x3d09a036	0.033600055
11	0x3bcde35c	0.006283207
12	0x3db5cc7e	0.088768944
13	0xbcf4b3eb	-0.029870948
14	0x3c0ec1f2	0.008713232
15	0x3ce91cb7	0.028456075
16	0xbd225660	-0.039633155
17	0x3d119fd0	0.0355528
18	0xbd1eabc8	-0.038738042
19	0xbcb52c5d	-0.02211588
20	0xbc0d36a8	-0.008618988
21	0xbd28f118	-0.04124555
22	0x3d11aa2c	0.03556268
23	0x3c7faba1	0.015604884
24	0xbcf77022	-0.030204836
25	0xbb009f88	-0.0019626338
26	0x3d0965a8	0.033544213
27	0x3b8ed5e4	0.004358994
28	0xbc5927c3	-0.013254109
29	0x3d1c644e	0.038181596
30	0xbc0da73e	-0.008645831
31	0xbcee5bec	-0.029096566
32	0x3c951d76	0.018202525
33	0x3d72b363	0.059253108
34	0x3bc04926	0.005868095
35	0x3cd11820	0.025524199
36	0x3d963194	0.07333675
37	0xbd477566	-0.048695944
38	0xbd574092	-0.052551813
39	0x3d244c0a	0.04011158
40	0x3d2a2e00	0.041547775
41	0x3d8b3019	0.06796283
42	0x3b255ad8	0.002523115
43	0xbd28857a	-0.04114292
44	0x3d6612a2	0.056170113
45	0xbc774ea8	-0.015094437
46	0x3c3cd787	0.011525995
47	0xbbe2b088	-0.006918017
48	0x3c5dbcd2	0.013533788
49	0x3cdd2d4c	0.026999138

out.weight f4 [10, 50]
0	0xbe106355	-0.14100392
1	0x3e53aba8	0.2067095
2	0xbd59f965	-0.053216357
3	0xbea501cf	-0.32227942
4	0xbea43942	-0.32074934
5	0xbd8f34ec	-0.06992516
6	0xbe8fb4ca	-0.2806762
7	0xbd1948d2	-0.037422962
8	0xbeb02f04	-0.3441087
9	0x3e920cf9	0.28525522
10	0xbe87eb90	-0.26546907
11	0x3e80d440	0.25161934
12	0x3dca75a4	0.098857194
13	0x3e4ca028	0.1998297
14	0x3e89d175	0.26917616
15	0xbc6e2ac5	-0.014536564
16	0x3e0f9f06	0.14025506
17	0xbe8a04be	-0.26956743
18	0xbc3ce992	-0.011530297
19	0xbe370552	-0.17873123
20	0xbe8d51fb	-0.2760161
21	0xbdbf751c	-0.09348509
22	0xbdcde25e	-0.10052942
23	0x3d826644	0.06367162
24	0x3d78089a	0.060555078
25	0xbe30231e	-0.17200896
26	0x3ee86bca	0.45394737
27	0xbe02bcdb	-0.12767355
28	0x3dab2a5e	0.0835769
29	0xbe38f3a8	-0.18061697
30	0x3e9be498	0.3044784
31	0x3e212c9d	0.15739675
32	0x3e257200	0.16156769
33	0xbec94458	-0.39309955
34	0x3d88fd1c	0.06688902
35	0x3cef53c2	0.029214744
36	0x3cda9eb4	0.026687004
37	0xbc974276	-0.018464308
38	0xbe7e141a	-0.24812356
39	0xbd518b56	-0.05115827
40	0x3eaa1bf9	0.33224466
41	0xbd5f4942	-0.054513223
42	0xbbda2830	-0.0066576228
43	0xbd5bea29	-0.05369011
44	0xbd2a4adb	-0.041575294
45	0x3d6eac85	0.058269996
46	0x3df979aa	0.12181409
47	0xbd568294	-0.052370623
48	0xbe993bee	-0.29928535
49	0xbe48282e	-0.19546577
50	0x3e0c9e06	0.13732156
51	0x3c674dd3	0.014117676
52	0x3dfb2e22	0.122646585
53	0xbe72a6fa	-0.23696509
54	0xbe179e45	-0.14806469
55	0x3b2c4814	0.002628808
56	0x3e05a234	0.13050157
57	0x3e4ab664	0.19796139
58	0xbeaa9968	-0.33320165
59	0xbe74d54e	-0.23909494
60	0x3f182d5c	0.5944421
61	0x3e28d3f8	0.1648711
62	0x3e5f4650	0.21804166
63	0xbe3c4801	-0.18386842
64	0xbdc2b262	-0.0950668
65	0xbe035738	-0.1282624
66	0xbd4d3b2e	-0.050105266
67	0xbe84e7e1	-0.2595816
68	0xbdf644dd	-0.120248534
69	0x3dad6b5c	0.08467743
70	0xbe2d996e	-0.1695306
71	0xbe16b03e	-0.14715669
72	0x3e4150ba	0.18878451
73	0x3eb09a8e	0.34492916
74	0xbe0c5d1c	-0.13707393
75	0xbde584b8	-0.11206955
76	0xbd8ccc0c	-0.06874856
77	0xbc03b505	-0.008038764
78	0xbe5b6f14	-0.21429092
79	0x3ddec334	0.10877076
80	0xbdfab4dd	-0.12241528
81	0xbd5b7658	-0.05357966
82	0x3f031b9e	0.51214015
83	0x3e12507c	0.14288515
84	0x3d0c5978	0.03426501
85	0xbdd2e2da	-0.10297175
86	0x3ebc6eb8	0.36803222
87	0xbe15c925	-0.14627512
88	0xbc86dace	-0.016461756
89	0x3daeb3fc	0.08530423
90	0xbeb11fc0	-0.34594536
91	0x3e10ab74	0.14127904
92	0x3e49cb16	0.19706377
93	0x3d0b56c4	0.034018293
94	0x3e6131ca	0.2199165
95	0xbdb03d76	-0.08605473
96	0xbe842ef6	-0.25817078
97	0x3d72d077	0.05928084
98	0x3d4d2dbf	0.050092455
99	0xbe87eafd	-0.2654647
100	0x3d0fc03d	0.035095442
101	0x3e72d283	0.23713116
102	0xbe0677d8	-0.13131654
103	0xbe6f771c	-0.2338528
104	0xbd8ad340	-0.06778574
105	0x3e1a9222	0.15094808
106	0x3e5b36b0	0.2140758
107	0x3e2300d6	0.15918288
108	0xbe808207	-0.25099203
109	0xbe7bd29c	-0.2459206
110	0xbde2477e	-0.11048792
111	0x3ec38432	0.38186795
112	0x3e962810	0.2932744
113	0xbde58a48	-0.11208016
114	0x3e1c35be	0.15254876
115	0x3dd003f9	0.10157008
116	0x3d8b25be	0.06794308
117	0x3ea422e5	0.32057872
118	0xbddb77e4	-0.10716227
119	0xbdb1f43a	-0.08689161
120	0x3e04cac2	0.12967971
121	0xbd8114fd	-0.06302831
122	0x3e296e86	0.16546068
123	0xbeebad7e	-0.46030802
124	0x3d24f5c5	0.040273447
125	0x3d3b6201	0.04574776
126	0xbeefb046	-0.46814173
127	0xbe6741c2	-0.22583678
128	0xbe955ee1	-0.2917395
129	0xbdc21e99	-0.09478492
130	0x3e85a4ee	0.26102394
131	0xbe95e775	-0.2927815
132	0x3ead1e0e	0.33811992
133	0xbf07282e	-0.52795684
134	0x3dab45e4	0.0836294
135	0x3ef2fe08	0.47459435
136	0xbea07675	-0.31340376
137	0xbce26630	-0.027636617
138	0x3e26deaa	0.16295877
139	0x3ea31b34	0.31856692
140	0x3e894046	0.2680685
141	0xbe621e20	-0.22081804
142	0xbd7894dc	-0.06068884
143	0xbdf07d82	-0.11742689
144	0x3e281222	0.16413167
145	0x3da90414	0.08252731
146	0xbe5ecc6e	-0.21757671
147	0xbdc466fa	-0.09589954
148	0xbeb4ac9e	-0.35287946
149	0x3ec7aaa0	0.38997364
150	0xbd888880	-0.0666666
151	0x3dcfde80	0.101498604
152	0xbd7be4d2	-0.061497517
153	0x3daacca1	0.08339811
154	0xbea730bc	-0.3265437
155	0xbdfe8304	-0.12427333
156	0xbe4a4880	-0.19754219
157	0xbde5c562	-0.112192884
158	0x3d09e549	0.03366593
159	0xbe94ce60	-0.29063702
160	0x3eae2979	0.34016016
161	0xbcbe716c	-0.023247443
162	0x3e90597f	0.2819328
163	0xbe922be5	-0.28549114
164	0xbe00418a	-0.12525001
165	0x3d9869a4	0.07442024
166	0xbdcd7b6d	-0.10033307
167	0x3ebc36af	0.3676047
168	0x3e2364de	0.15956447
169	0x3d3208b2	0.043465324
170	0x3e6cf994	0.23142081
171	0x3ee5207b	0.44751343
172	0xbe321680	-0.17391396
173	0x3de759ed	0.11296449
174	0xbdf8d8c2	-0.12150718
175	0xbe0ebbf4	-0.13938886
176	0xbd99709f	-0.07492184
177	0x3d086c92	0.033306666
178	0xbeacd554	-0.33756506
179	0xbea30e30	-0.31846762
180	0x3e97f227	0.29676935
181	0x3eabec48	0.33578706
182	0xbeb499bc	-0.3527354
183	0x3e4d733e	0.20063493
184	0x3de00cda	0.10939951
185	0x3c16c934	0.009203244
186	0xbd1157e1	-0.0354842
187	0xbdd3af1c	-0.10336134
188	0x3e71320d	0.23554249
189	0xbeb2cea6	-0.34923285
190	0x3c5b4862	0.013383957
191	0xbe98c1a6	-0.29835242
192	0xbe071e83	-0.13195233
193	0x3e17085f	0.14749287
194	0xbe7a13a8	-0.24421561
195	0xbe29822a	-0.1655356
196	0x3ebbe528	0.3669827
197	0x3d270216	0.040773474
198	0x3e829fd9	0.2551258
199	0xbe494a8d	-0.19657345
200	0x3d9417a4	0.072310716
201	0xbe745a64	-0.23862606
202	0x3de59c84	0.112114936
203	0x3df19c66	0.11797409
204	0x3ddc6393	0.1076118
205	0x3d5dcca6	0.054150246
206	0x3e81a9e9	0.25324944
207	0x3e464b7d	0.19364734
208	0x3eca0f9c	0.39465034
209	0x3dc94436	0.09827463
210	0xbebb56a7	-0.36589548
211	0xbe910fe0	-0.28332424
212	0xbe628553	-0.22121172
213	0xbe49a31d	-0.19691129
214	0x3e007096	0.12542948
215	0x3da9d481	0.08292485
216	0x3e6c5622	0.23079732
217	0xbed4e602	-0.41581732
218	0x3db6565f	0.08903193
219	0x3da6bbb0	0.08141267
220	0xbe627d8e	-0.22118208
221	0xbede3e10	-0.43406725
222	0x3eb630ff	0.35584256
223	0x3db650af	0.08902108
224	0x3ce0e61e	0.027453478
225	0x3ba39899	0.0049925563
226	0xbe04702f	-0.1293342
227	0x3e07b9d4	0.13254482
228	0x3e5f00ca	0.21777645
229	0x3ef8e2fb	0.48610672
230	0xbea29d4c	-0.31760633
231	0xbc3a8bd7	-0.0113858795
232	0xbe8b7412	-0.27236992
233	0x3d32b249	0.043627057
234	0x3d1b2430	0.037876308
235	0x3e4d98e6	0.20077857
236	0xbe455fdb	-0.19274847
237	0xbe329084	-0.17437941
238	0x3ea0bfda	0.3139637
239	0xbdd6b2e0	-0.104833364
240	0xbed7a8d0	-0.4212098
241	0x3e254c64	0.16142422
242	0x3e04eed4	0.1298173
243	0xbdbbf1d0	-0.091769814
244	0x3eb69cee	0.35666603
245	0x3e063a4f	0.1310818
246	0x3e6ab336	0.22919926
247	0x3dcdfcab	0.10057958
248	0x3e0b82fe	0.13624188
249	0xbe29d16f	-0.16583799
250	0x3cd70558	0.026247665
251	0x3dcd37ce	0.100204095
252	0x3db534a2	0.088479295
253	0xbea4371a	-0.3207329
254	0x3eacb48e	0.33731502
255	0xbc39032c	-0.01129226

out.bias f4 [10]
0	0xbd1e02d4	-0.038576916
1	0x3d553c72	0.0520596
2	0x3c188014	0.00930788
3	0xbded9342	-0.11600353
4	0xbe1ac7a1	-0.15115215
5	0xbe1bdc9a	-0.15220872
6	0xbd81a4d5	-0.06330267
7	0xbd64f684	-0.055899158
8	0x3e5dccd3	0.21660165
9	0x3e1df0ec	0.15423936
